…
At the end of the simulation we record the infection prevalence in cattle, badgers, and also in terms of the numbers of holdings with at least one infection. Finally, we sample infected cattle and associated metadata from these outputs, as one would in a real-world epidemiological investigation. We record from each cow their pseudo-sequence, along with their sample time, sample location, and previous movement history. From each badger we sample each their birth date, death date, and sample location. Animals are sampled at time of death. 7C Graph neural network model architectures 

## Synthetic 1 

========================================================================================== Layer (type:depth-idx) Output Shape Param # ========================================================================================== GNN [1999000] --ModuleList: 1-1 -- --GeneralConv: 2-1 [2000, 128] 256 Linear: 3-1 [2001000, 256] 1,792 Linear: 3-2 [2001000, 256] 2,816 SoftmaxAggregation: 3-3 [2000, 2, 128] --Linear: 3-4 [2000, 128] 896 GeneralConv: 2-2 [2000, 128] 256 Linear: 3-5 [2001000, 256] 33,024 Linear: 3-6 [2001000, 256] 2,816 SoftmaxAggregation: 3-7 [2000, 2, 128] --Identity: 3-8 [2000, 128] --GeneralConv: 2-3 [2000, 128] 128 Linear: 3-9 [2001000, 128] 16,512 Linear: 3-10 [2001000, 128] 1,408 SoftmaxAggregation: 3-11 [2000, 1, 128] --Identity: 3-12 [2000, 128] --Sequential: 1-2 [1999000, 1] --Linear: 2-4 [1999000, 64] 16,960 ReLU: 2-5 [1999000, 64] --Dropout: 2-6 [1999000, 64] --Linear: 2-7 [1999000, 8] 520 ReLU: 2-8 [1999000, 8] --Dropout: 2-9 [1999000, 8] --Linear: 2-10 [1999000, 4] 36 ReLU: 2-11 [1999000, 4] --Linear: 2-12 [1999000, 1] 5========================================================================================== Total params: 77,425 Trainable params: 77,425 Non-trainable params: 0 Total mult-adds (G): 151.82 ========================================================================================== Input size (MB): 111.99 Forward/backward pass size (MB): 21723.67 Params size (MB): 0.31 Estimated Total Size (MB): 21835.97 ========================================================================================== 

## Synthetic 2 

========================================================================================== Layer (type:depth-idx) Output Shape Param # ========================================================================================== GNN [1999000] --ModuleList: 1-1 -- --GeneralConv: 2-1 [2000, 128] 256 Linear: 3-1 [2001000, 256] 1,792 Linear: 3-2 [2001000, 256] 2,816 SoftmaxAggregation: 3-3 [2000, 2, 128] --Linear: 3-4 [2000, 128] 896 GeneralConv: 2-2 [2000, 128] 256 Linear: 3-5 [2001000, 256] 33,024 Linear: 3-6 [2001000, 256] 2,816 SoftmaxAggregation: 3-7 [2000, 2, 128] --Identity: 3-8 [2000, 128] --GeneralConv: 2-3 [2000, 128] 128 Linear: 3-9 [2001000, 128] 16,512 Linear: 3-10 [2001000, 128] 1,408 SoftmaxAggregation: 3-11 [2000, 1, 128] --Identity: 3-12 [2000, 128] --Sequential: 1-2 [1999000, 1] --

8Linear: 2-4 [1999000, 64] 16,960 ReLU: 2-5 [1999000, 64] --Dropout: 2-6 [1999000, 64] --Linear: 2-7 [1999000, 8] 520 ReLU: 2-8 [1999000, 8] --Dropout: 2-9 [1999000, 8] --Linear: 2-10 [1999000, 4] 36 ReLU: 2-11 [1999000, 4] --Linear: 2-12 [1999000, 1] 5========================================================================================== Total params: 77,425 Trainable params: 77,425 Non-trainable params: 0 Total mult-adds (G): 151.82 ========================================================================================== Input size (MB): 111.99 Forward/backward pass size (MB): 21723.67 Params size (MB): 0.31 Estimated Total Size (MB): 21835.97 ========================================================================================== 

## Synthetic 3 

========================================================================================== Layer (type:depth-idx) Output Shape Param # ========================================================================================== GNN [1999000] --ModuleList: 1-1 -- --GeneralConv: 2-1 [2000, 128] 256 Linear: 3-1 [2001000, 256] 1,792 Linear: 3-2 [2001000, 256] 2,816 SoftmaxAggregation: 3-3 [2000, 2, 128] --Linear: 3-4 [2000, 128] 896 GeneralConv: 2-2 [2000, 128] 256 Linear: 3-5 [2001000, 256] 33,024 Linear: 3-6 [2001000, 256] 2,816 SoftmaxAggregation: 3-7 [2000, 2, 128] --Identity: 3-8 [2000, 128] --GeneralConv: 2-3 [2000, 128] 128 Linear: 3-9 [2001000, 128] 16,512 Linear: 3-10 [2001000, 128] 1,408 SoftmaxAggregation: 3-11 [2000, 1, 128] --Identity: 3-12 [2000, 128] --Sequential: 1-2 [1999000, 1] --Linear: 2-4 [1999000, 64] 16,960 ReLU: 2-5 [1999000, 64] --Dropout: 2-6 [1999000, 64] --Linear: 2-7 [1999000, 8] 520 ReLU: 2-8 [1999000, 8] --Dropout: 2-9 [1999000, 8] --Linear: 2-10 [1999000, 4] 36 ReLU: 2-11 [1999000, 4] --Linear: 2-12 [1999000, 1] 5========================================================================================== Total params: 77,425 Trainable params: 77,425 Non-trainable params: 0 Total mult-adds (G): 151.82 ========================================================================================== Input size (MB): 111.99 Forward/backward pass size (MB): 21723.67 Params size (MB): 0.31 Estimated Total Size (MB): 21835.97 ========================================================================================== 

## Woodchester 

========================================================================================== Layer (type:depth-idx) Output Shape Param # 

9========================================================================================== GNN [28920] --ModuleList: 1-1 -- --GeneralConv: 2-1 [241, 32] 64 Linear: 3-1 [29161, 64] 448 Linear: 3-2 [29161, 64] 576 SoftmaxAggregation: 3-3 [241, 2, 32] --Linear: 3-4 [241, 32] 224 GeneralConv: 2-2 [241, 32] 64 Linear: 3-5 [29161, 64] 2,112 Linear: 3-6 [29161, 64] 576 SoftmaxAggregation: 3-7 [241, 2, 32] --Identity: 3-8 [241, 32] --GeneralConv: 2-3 [241, 32] 32 Linear: 3-9 [29161, 32] 1,056 Linear: 3-10 [29161, 32] 288 SoftmaxAggregation: 3-11 [241, 1, 32] --Identity: 3-12 [241, 32] --Sequential: 1-2 [28920, 1] --Linear: 2-4 [28920, 64] 4,608 ReLU: 2-5 [28920, 64] --Dropout: 2-6 [28920, 64] --Linear: 2-7 [28920, 8] 520 ReLU: 2-8 [28920, 8] --Dropout: 2-9 [28920, 8] --Linear: 2-10 [28920, 4] 36 ReLU: 2-11 [28920, 4] --Linear: 2-12 [28920, 1] 5========================================================================================== Total params: 10,609 Trainable params: 10,609 Non-trainable params: 0 Total mult-adds (M): 296.98 ========================================================================================== Input size (MB): 1.39 Forward/backward pass size (MB): 92.53 Params size (MB): 0.04 Estimated Total Size (MB): 93.96 ========================================================================================== 

## Cumbria 

========================================================================================== Layer (type:depth-idx) Output Shape Param # ========================================================================================== GNN [1953] --ModuleList: 1-1 -- --GeneralConv: 2-1 [63, 64] 64 Linear: 3-1 [2016, 64] 512 Linear: 3-2 [2016, 64] 704 SoftmaxAggregation: 3-3 [63, 1, 64] --Linear: 3-4 [63, 64] 512 Sequential: 1-2 [1953, 1] --Linear: 2-2 [1953, 64] 8,832 ReLU: 2-3 [1953, 64] --Dropout: 2-4 [1953, 64] --Linear: 2-5 [1953, 8] 520 ReLU: 2-6 [1953, 8] --Dropout: 2-7 [1953, 8] --Linear: 2-8 [1953, 4] 36 ReLU: 2-9 [1953, 4] --Linear: 2-10 [1953, 1] 5========================================================================================== Total params: 11,185 Trainable params: 11,185 Non-trainable params: 0 Total mult-adds (M): 20.83 ========================================================================================== Input size (MB): 0.11 Forward/backward pass size (MB): 3.30 Params size (MB): 0.04 

10 Estimated Total Size (MB): 3.46 ========================================================================================== 
…
